ML/trained_gnn_model.pth (torch, 7456 bytes, 3 tensors)

conv1.bias f4 [64]
00000000: b4fc 763d 8645 473d 3cf4 733d 0000 0000
00000010: b53a e6bd cd94 f9bd eb92 af3c 4487 05be
00000020: ee47 833d 20c9 8cbd a6f5 713d 9146 433d
00000030: 24a2 b6bd 41cc eebd 7956 cbbd 8177 d3bd
00000040: 8f54 8a3d 836f ee3c 8571 463d 229c c1bc
00000050: 74b4 703d 8352 853d c65c 363d 3671 e0bd
00000060: 9de6 813d d720 2f3d 96f4 643d c30e 8a3d
00000070: a963 9ebd 279f 9c3c 3a21 7f3d 8bba 79bd
00000080: ba85 8b3d 17a8 403d 8a27 bebd ab50 ecbd
00000090: 483d ebbd 07a3 6f3d f2a8 763d 3896 883d
000000a0: 430a 663d 1b3f 52bd bcd1 843d 47cb edbd
000000b0: 083c 733d f71d e2bd efff 94bd 0000 0000
000000c0: 2169 b3bd 12d6 8dbd ea47 4f3d f797 06be
000000d0: 4d6e 8c3d d24a ef3c 36e2 653d f49c eebd
000000e0: 4ace 863d 8e13 06bd a41e 5fbd 48f0 72bd
000000f0: 9919 c4bd 5df0 09be 8eb5 863d 328a d73c
0.06029959 0.048650287 0.059559092 0.0 -0.11241666 -0.121865846 0.02143236 -0.13039881
0.06410204 -0.06874299 0.05907216 0.04767472 -0.089176446 -0.11660052 -0.09928603 -0.10325528
0.067544095 0.029105907 0.048448104 -0.02363402 0.058765844 0.065098785 0.04452207 -0.10959093
0.06342814 0.042755928 0.055897318 0.06741097 -0.077338524 0.019118859 0.062287547 -0.060968917
0.06812616 0.047035303 -0.09284885 -0.11538824 -0.11486298 0.058505084 0.060219713 0.06669277
0.05616213 -0.051329713 0.06485316 -0.11611038 0.059383422 -0.110408716 -0.07275378 0.0
-0.08760286 -0.06925596 0.050605692 -0.13143907 0.06856976 0.029210482 0.056123935 -0.1165103
0.06582315 -0.032733493 -0.05447258 -0.05931118 -0.09575195 -0.13470598 0.065775976 0.026311014

conv1.lin.weight f4 [64, 18]
00000000: 7084 b23c 4081 37be 0e61 66be dc6d cb3d
00000010: 7e63 213e 2056 523c b464 fdbd 4d0c c2be
00000020: ceae e3bd c891 5bbd 5898 06bd 446b 0b3e
00000030: 1c45 a63d 80de 183c 2576 04be beac 81be
00000040: e893 2a3d a862 b3bc 41ba 4dbe 2820 a73d
00000050: 8cf2 033e 3e5b 72be a290 233e db60 bdbb
00000060: d296 4c3e 6dc4 65be 581a d0bd 801f e43d
00000070: 5f41 4abe 90f3 ce3d a0ce 7bbc 5420 ea3d
00000080: 1c74 1f3e 822d 64be 98ee 79be 6fd8 66be
00000090: 0025 133c a009 183e d0c8 adbd 81cb 70be
000000a0: 22dd 3e3e b59a 51bb 02b2 3a3e 6b59 51be
000000b0: ac1f 633e d095 8d3d c96f 433e 5055 c5bc
000000c0: 807a 493b 1cba ab3d f056 7b3e ada1 83be
000000d0: dc45 38be 0a26 9bbe dc0b 51bd d829 3a3e
000000e0: 0e1c 83bd 38b1 89be 3803 283e ec9a 8e3d
000000f0: 0098 c1bb 407d ccbb 3641 e1bd d895 533d
00000100: 6e36 30be a872 4b3e 3cfa bd3d 3e70 693e
00000110: 4695 80bd 6c66 8fbd 08d3 543e c76d 81be
00000120: 0e76 12be ac5d 29bd 625a 4cbe 3091 4dbe
00000130: 90eb 413d 5ae1 c53d 4c68 26be cc66 ff3c
00000140: 9414 80bd a41e 6fbe ea7c 383d 12be 3a3e
00000150: a03b 6f3e 0cb1 413e 88ec 413d 6098 6bbc
00000160: d0bf 403d 2919 a5be 0833 fabd c87d 323e
00000170: 0aa8 babc 82fd a6bd 4659 223e 11be e43d
00000180: 90e0 f73d dcfe e1bb 36bb 27be d257 5ebe
00000190: 20d4 083e 147c b3bd f458 043e 0ca7 d73d
000001a0: a257 95bd 1f93 a6bc 38dd 043e 3571 733e
000001b0: 3076 bb3c 2a74 1ebe cd40 6f3d 50b7 283d
000001c0: 608c b7bd 3cd9 e93d c0fb 85be c9ae 68be
000001d0: f469 85bd 9c33 123e c0a9 063e d663 debd
000001e0: ec0b d03d 7a92 afbd 52ee 863e 1e88 823d
000001f0: fa56 89bd a10d 093e c0f0 443e 4e14 893e
00000200: f65f c8bd 60da 723e 4a55 113e 8467 5abd
00000210: 101e 0fbd b065 c7bc 9a67 1cbe f4c3 20be
00000220: a785 913d bb72 6cbe 6e21 17be 8025 7dbe
00000230: 3e31 863e 09cd 853d f3cd 7abe 8cb9 5bbe
00000240: faeb 023e 2ebc 3a3e 77a2 48be a052 ea3c
00000250: fe87 023e 5ebc a03e 0888 513d 8915 303e
00000260: e8f6 773d a84d 41be 97b2 0a3e 70ff 11be
00000270: 8083 a23c 987e 883e d3d3 48be f21a 64be
00000280: ac49 af3d 2457 bb3d 7028 bd3c cdc3 0ebe
00000290: f427 3fbd c05c 2fbe 808f a83b 16ab 103e
000002a0: d8bd 513d acf7 58be 5832 b8bd c1a6 7abe
000002b0: 16e0 bb3d 16b5 7bbe 14aa 913d 2207 fcbd
000002c0: e061 6bbc 3f9c 6fbe 22e2 dfbd 7509 3abd
000002d0: ce86 a6bd a644 163e e908 353e 5010 713e
000002e0: 22cf a9bd b256 60be ca41 5bbe 118d 843d
000002f0: 1cc2 d6bd 889d 703e f170 843e 2150 60be
00000300: eaf9 2e3e 6020 f83d ba23 3abe c623 6fbe
00000310: b006 2d3e 0afd 98be e0d2 443d 40f2 5bbd
00000320: 490c 2c3d 1c25 2cbe 0823 11be 04e1 743e
00000330: a656 2abe 9a32 92be 190c 03be be5f 493e
00000340: 88bb 183e 206b ae3c c3a1 77be 302a dd3c
00000350: 446d 243e 9261 75be b0eb ce3d 6fee 8dbb
00000360: 543e 7e3e a412 29bd fa80 bbbd a895 51be
00000370: 3882 613d f844 673d 7d7a 1abe 7d2d 13be
00000380: c775 89be 5e8c 433e 6f62 163e 94d5 b6bd
00000390: c8d5 3cbe 88f0 af3d e7f4 88be 4949 f4bc
000003a0: 3835 733e 807a 13bb c0c3 23bd a2cf 91bd
000003b0: aca6 5fbd 30c8 0d3e 6c6b 853e acb4 8cbe
000003c0: 849d 213e 6882 09bd fc10 15be b840 64be
000003d0: 750f 193e 5c31 6a3e 2483 813d a883 b2bd
000003e0: ce25 93bd b8cb abbc d2a9 42be e257 6a3e
000003f0: aa3c 68be 006b 713c d6f3 39be c0d2 e6bd
0.021791667 -0.17920399 -0.22497961 0.099330634 0.1576061 0.012837917 -0.12372723 -0.3790001
-0.11117326 -0.053605825 -0.03286013 0.13615137 0.0811865 0.009330392 -0.12935694 -0.25327104
0.04164496 -0.021897629 -0.20090581 0.0816043 0.12885493 -0.23667619 0.15973142 -0.0057793683
0.19979408 -0.22438212 -0.10161275 0.11138821 -0.197515 0.101050496 -0.015369087 0.11431947
0.15571636 -0.22282985 -0.24407423 -0.225435 0.008980989 0.14847422 -0.084855676 -0.2351513
0.18639043 -0.0031983082 0.18231967 -0.20444266 0.2218005 0.0691334 0.19085611 -0.024088532
0.0030743182 0.08385107 0.24544883 -0.25709286 -0.17995399 -0.3030246 -0.0510367 0.18180025
-0.064018354 -0.2689302 0.16407478 0.06963143 -0.0059080124 -0.006240517 -0.10998766 0.051656574
-0.17208263 0.19867957 0.09276244 0.22796723 -0.06278472 -0.07001957 0.20783627 -0.25279066
-0.14302847 -0.041349098 -0.19956353 -0.20074916 0.04734379 0.09662123 -0.16250724 0.031176947
-0.06253925 -0.23351532 0.045041002 0.18236569 0.23362589 0.18915194 0.047344714 -0.014379591
0.047057927 -0.32245758 -0.12216765 0.17430794 -0.022785205 -0.081538215 0.15854368 0.11169065
0.12103379 -0.0068968367 -0.16380009 -0.21713188 0.1336217 -0.087639004 0.12924558 0.105299085
-0.07292105 -0.020333825 0.12975013 0.23773654 0.022883505 -0.15474 0.05841141 0.041190445
-0.08962321 0.11418387 -0.26168633 -0.22722925 -0.065143496 0.142775 0.13150692 -0.10858886
0.10158524 -0.0857286 0.263537 0.063736185 -0.067060426 0.13384105 0.19232464 0.26773304
-0.09783928 0.23716116 0.14192691 -0.053321376 -0.03494078 -0.02434048 -0.15273896 -0.1569975
0.0710557 -0.23090641 -0.14758846 -0.24721336 0.26209444 0.06533248 -0.24492626 -0.214575
0.1278533 0.18235847 -0.19593225 0.028603852 0.1274719 0.31393713 0.05115512 0.17195715
0.060538203 -0.1887728 0.13544689 -0.14257598 0.019838095 0.26659083 -0.19612055 -0.22275904
0.08558974 0.0914748 0.023090571 -0.1394188 -0.04666896 -0.17125225 0.0051440597 0.14127764
0.05120644 -0.2118823 -0.08993977 -0.24477674 0.091736004 -0.24580798 0.07112518 -0.12306048
-0.014366597 -0.23399447 -0.10931803 -0.045419175 -0.08131181 0.14674625 0.1767918 0.23541379
-0.082914606 -0.21908072 -0.21411815 0.06472219 -0.10486242 0.23497593 0.25867417 -0.21905567
0.17087522 0.1211555 -0.18177691 -0.2335349 0.16897082 -0.29880553 0.04805267 -0.053697824
0.042003904 -0.16811031 -0.1417352 0.23913962 -0.16634616 -0.2855423 -0.12797584 0.19665429
0.14915287 0.021291316 -0.24182801 0.026997656 0.16057307 -0.23963001 0.101035476 -0.004331402
0.24828464 -0.041277543 -0.0915546 -0.20467246 0.055055827 0.056462258 -0.15085788 -0.14372821
-0.2684767 0.19096515 0.14685987 -0.089274555 -0.18440926 0.085907996 -0.26749346 -0.029820101
0.2375077 -0.0022503436 -0.039981604 -0.07119681 -0.05460231 0.13845897 0.2605852 -0.27481592
0.15782744 -0.03357163 -0.1455726 -0.22290313 0.14947303 0.22870392 0.06323841 -0.08716518
-0.07184945 -0.020971164 -0.19010094 0.22885087 -0.22679392 0.014734983 -0.18159422 -0.11270666

conv2.lin.weight f4 [1, 64]
00000000: ce11 173e fceb 3f3e 2103 583e f66d 84be
00000010: 9e88 2dbe 25a8 17be 7c2c 9e3c c7fe 773d
00000020: ea80 4e3e b936 eabc f3ae 473e 16fb 993d
00000030: fd2e 80bd 2e07 01be 28c8 87bd 3aae 493b
00000040: 3b75 783e 951a f73c 1657 c83d bb2f 513c
00000050: 81dc 6f3e 203b 603e 7d8b 8a3d b82f a2be
00000060: ff60 8c3e b40f 923d c8c6 6f3e 731f 8f3e
00000070: ccc3 fc3c 6fb0 c23c fd8a 7e3e 5e7f 9ebd
00000080: b4af 923e 1611 1b3e 6018 1cbe c691 0ebe
00000090: 2d0b 35be 69e8 363e d3b6 1e3e e2b1 7f3e
000000a0: 33bf f33d 97d9 dbbd 9594 6f3e 76ed 2f3d
000000b0: 66b2 7f3e 6e0d 1cbe a1b0 8fbd f6c2 983e
000000c0: 30a5 1bbe 381e 33be a60e d53d f97f 35bd
000000d0: 75f8 8d3e 87b8 5f3d 647b 573e e078 86be
000000e0: 2573 653e 55c3 57be 1c42 ebbd 42ef 15be
000000f0: 3145 febd a126 023d 3425 7e3e 5029 d53c
0.14752886 0.18742365 0.21094944 -0.25865144 -0.16946647 -0.14810236 0.019308321 0.06054571
0.20166364 -0.028590547 0.19500332 0.07518594 -0.06258962 -0.12600395 -0.06629974 0.0030774013
0.2426347 0.030164042 0.09782235 0.0127677275 0.2342396 0.21897554 0.067648865 -0.31677032
0.27417752 0.071319014 0.23415673 0.2795368 0.030855082 0.02376577 0.24857707 -0.07739137
0.28649676 0.15143237 -0.15243673 -0.13922796 -0.17680044 0.17862095 0.1549943 0.249702
0.11901703 -0.10734861 0.23396523 0.04295107 0.24970397 -0.15239498 -0.07016111 0.29836243
-0.15199733 -0.17491996 0.104031846 -0.044311497 0.2772862 0.05461934 0.21043164 -0.26264095
0.22407205 -0.21070607 -0.11487219 -0.14642051 -0.12415541 0.03177512 0.2481888 0.026020676
