ML/trained_gnn_model.pth (torch, 7456 bytes, 3 tensors)

conv1.bias f4 [64]
0.06515506 0.05555131 0.06649927 0.0 -0.11241666 -0.11197786 0.02945647 -0.13039881
0.068877764 -0.06874299 0.06609103 0.053062834 -0.089176446 -0.12133763 -0.09928603 -0.10325528
0.06969896 0.03609704 0.055762444 -0.014089355 0.06558878 0.06983446 0.049989697 -0.10521541
0.07019612 0.050323624 0.062741116 0.07194756 -0.077338524 0.025389649 0.069217 -0.060968917
0.07276855 0.05403315 -0.09284885 -0.11538824 -0.11486298 0.06556107 0.06511561 0.071383454
0.06117419 -0.044511415 0.069512725 -0.11611038 0.06620696 -0.110408716 -0.080279544 0.0
-0.077898994 -0.087568276 0.057848036 -0.13143907 0.07319333 0.037060093 0.06298652 -0.11158434
0.07056014 -0.053553287 -0.05447258 -0.05931118 -0.08674023 -0.13470598 0.07044059 0.033552144
00000000: 0470 853d c589 633d c530 883d 0000 0000
00000010: b53a e6bd a654 e5bd b24e f13c 4487 05be
00000020: c90f 8d3d 20c9 8cbd bc5a 873d 6a58 593d
00000030: 24a2 b6bd dd7f f8bd 7956 cbbd 8177 d3bd
00000040: 54be 8e3d 7dda 133d 2967 643d 0ad7 66bc
00000050: 6953 863d 5f05 8f3d ffc1 4c3d 2d7b d7bd
00000060: fcc2 8f3d 2520 4e3d 6a7e 803d 3e59 933d
00000070: a963 9ebd f4fd cf3c a4c1 8d3d 8bba 79bd
00000080: ad07 953d dd51 5d3d 8a27 bebd ab50 ecbd
00000090: 483d ebbd e244 863d 555b 853d 7d31 923d
000000a0: ca91 7a3d 9a51 36bd b05c 8e3d 47cb edbd
000000b0: 8497 873d f71d e2bd 9a69 a4bd 0000 0000
000000c0: 8289 9fbd ff56 b3bd 10f2 6c3d f797 06be
000000d0: 62e6 953d 53cc 173d 14ff 803d 5586 e4bd
000000e0: d681 903d b15a 5bbd a41e 5fbd 48f0 72bd
000000f0: dda4 b1bd 5df0 09be 2843 903d f96d 093d

conv1.lin.weight f4 [64, 18]
0.021791667 -0.17920399 -0.22497961 0.099330634 0.1576061 0.012837917 -0.12372723 -0.3790001
-0.11117326 -0.053605825 -0.038034484 0.13615137 0.0811865 0.009330392 -0.12935694 -0.25327104
0.04164496 -0.018525088 -0.20090581 0.0816043 0.0854423 -0.23667619 0.15973142 -0.0057793683
0.19979408 -0.22438212 -0.10161275 0.11138821 -0.197515 0.101050496 -0.015369087 0.11431947
0.15571636 -0.22282985 -0.24407423 -0.17190918 0.008980989 0.14847422 -0.128472 -0.2351513
0.18639043 -0.0031983082 0.18231967 -0.17223024 0.2218005 0.0691334 0.18567617 -0.024088532
0.0030743182 0.08385107 0.24544883 -0.25709286 -0.17995399 -0.3030246 -0.0510367 0.18180025
-0.064018354 -0.2689302 0.16407478 0.06963143 -0.0059080124 -0.006240517 -0.10998766 0.051656574
-0.17208263 0.19867957 0.09276244 0.22796723 -0.06278472 -0.07001957 0.20783627 -0.25279066
-0.14302847 -0.041349098 -0.19956353 -0.20074916 0.04734379 0.09662123 -0.16250724 0.031176947
-0.06253925 -0.23351532 0.045041002 0.18236569 0.23362589 0.18915194 0.047344714 -0.014379591
0.047057927 -0.32245758 -0.12216765 0.17430794 -0.022785205 -0.081538215 0.15854368 0.13503519
0.12103379 0.011991255 -0.16380009 -0.21713188 0.1336217 -0.087639004 0.12924558 0.105299085
-0.07292105 -0.020333825 0.12975013 0.21980034 0.022883505 -0.15474 0.024584495 0.041190445
-0.08962321 0.09374883 -0.26168633 -0.24135782 -0.065143496 0.142775 0.12401603 -0.10858886
0.10158524 -0.0857286 0.263537 0.061036926 -0.067060426 0.13971382 0.19232464 0.26773304
-0.09783928 0.23716116 0.14192691 -0.053321376 -0.03494078 -0.02434048 -0.15273896 -0.1569975
0.0710557 -0.23090641 -0.14758846 -0.24721336 0.26209444 0.06533248 -0.24492626 -0.214575
0.1278533 0.18235847 -0.19593225 0.028603852 0.1274719 0.29031724 0.05115512 0.17255893
0.060538203 -0.1887728 0.13028625 -0.14257598 0.019838095 0.26659083 -0.19612055 -0.22275904
0.08558974 0.094240725 0.023090571 -0.1394188 -0.04666896 -0.17125225 0.0051440597 0.14127764
0.05120644 -0.2118823 -0.08993977 -0.24477674 0.091736004 -0.24580798 0.07112518 -0.12306048
-0.014366597 -0.23399447 -0.10931803 -0.045419175 -0.08131181 0.14674625 0.13330281 0.23541379
-0.082914606 -0.21908072 -0.21411815 0.06941923 -0.10486242 0.23497593 0.25346082 -0.21905567
0.17087522 0.1211555 -0.18177691 -0.2335349 0.16897082 -0.27963877 0.04805267 -0.053697824
0.0011095894 -0.16811031 -0.1417352 0.20222966 -0.16634616 -0.32245222 -0.12797584 0.19665429
0.14373791 0.021291316 -0.24182801 0.026997656 0.16057307 -0.23963001 0.101035476 -0.0007794823
0.24828464 -0.041277543 -0.0915546 -0.20467246 0.055055827 0.056462258 -0.15085788 -0.14372821
-0.2684767 0.19096515 0.14685987 -0.089274555 -0.18440926 0.085907996 -0.26749346 -0.029820101
0.2375077 -0.0022503436 -0.039981604 -0.07119681 -0.05460231 0.13845897 0.2605852 -0.27481592
0.15782744 0.0013038871 -0.1455726 -0.22290313 0.14947303 0.22870392 0.06323841 -0.08716518
-0.07184945 -0.020971164 -0.19010094 0.21907865 -0.22679392 0.014734983 -0.18159422 -0.11270666
00000000: 7084 b23c 4081 37be 0e61 66be dc6d cb3d
00000010: 7e63 213e 2056 523c b464 fdbd 4d0c c2be
00000020: ceae e3bd c891 5bbd 0cca 1bbd 446b 0b3e
00000030: 1c45 a63d 80de 183c 2576 04be beac 81be
00000040: e893 2a3d edc1 97bc 41ba 4dbe 2820 a73d
00000050: 5ffc ae3d 3e5b 72be a290 233e db60 bdbb
00000060: d296 4c3e 6dc4 65be 581a d0bd 801f e43d
00000070: 5f41 4abe 90f3 ce3d a0ce 7bbc 5420 ea3d
00000080: 1c74 1f3e 822d 64be 98ee 79be f608 30be
00000090: 0025 133c a009 183e 2a8e 03be 81cb 70be
000000a0: 22dd 3e3e b59a 51bb 02b2 3a3e 205d 30be
000000b0: ac1f 633e d095 8d3d e521 3e3e 5055 c5bc
000000c0: 807a 493b 1cba ab3d f056 7b3e ada1 83be
000000d0: dc45 38be 0a26 9bbe dc0b 51bd d829 3a3e
000000e0: 0e1c 83bd 38b1 89be 3803 283e ec9a 8e3d
000000f0: 0098 c1bb 407d ccbb 3641 e1bd d895 533d
00000100: 6e36 30be a872 4b3e 3cfa bd3d 3e70 693e
00000110: 4695 80bd 6c66 8fbd 08d3 543e c76d 81be
00000120: 0e76 12be ac5d 29bd 625a 4cbe 3091 4dbe
00000130: 90eb 413d 5ae1 c53d 4c68 26be cc66 ff3c
00000140: 9414 80bd a41e 6fbe ea7c 383d 12be 3a3e
00000150: a03b 6f3e 0cb1 413e 88ec 413d 6098 6bbc
00000160: d0bf 403d 2919 a5be 0833 fabd c87d 323e
00000170: 0aa8 babc 82fd a6bd 4659 223e aa46 0a3e
00000180: 90e0 f73d f876 443c 36bb 27be d257 5ebe
00000190: 20d4 083e 147c b3bd f458 043e 0ca7 d73d
000001a0: a257 95bd 1f93 a6bc 38dd 043e 5713 613e
000001b0: 3076 bb3c 2a74 1ebe 6c65 c93c 50b7 283d
000001c0: 608c b7bd 63ff bf3d c0fb 85be 8126 77be
000001d0: f469 85bd 9c33 123e 1efc fd3d d663 debd
000001e0: ec0b d03d 7a92 afbd 52ee 863e db01 7a3d
000001f0: fa56 89bd 2411 0f3e c0f0 443e 4e14 893e
00000200: f65f c8bd 60da 723e 4a55 113e 8467 5abd
00000210: 101e 0fbd b065 c7bc 9a67 1cbe f4c3 20be
00000220: a785 913d bb72 6cbe 6e21 17be 8025 7dbe
00000230: 3e31 863e 09cd 853d f3cd 7abe 8cb9 5bbe
00000240: faeb 023e 2ebc 3a3e 77a2 48be a052 ea3c
00000250: fe87 023e 76a4 943e 0888 513d 4ab3 303e
00000260: e8f6 773d a84d 41be c269 053e 70ff 11be
00000270: 8083 a23c 987e 883e d3d3 48be f21a 64be
00000280: ac49 af3d 4801 c13d 7028 bd3c cdc3 0ebe
00000290: f427 3fbd c05c 2fbe 808f a83b 16ab 103e
000002a0: d8bd 513d acf7 58be 5832 b8bd c1a6 7abe
000002b0: 16e0 bb3d 16b5 7bbe 14aa 913d 2207 fcbd
000002c0: e061 6bbc 3f9c 6fbe 22e2 dfbd 7509 3abd
000002d0: ce86 a6bd a644 163e 8880 083e 5010 713e
000002e0: 22cf a9bd b256 60be ca41 5bbe ab2b 8e3d
000002f0: 1cc2 d6bd 889d 703e 9ec5 813e 2150 60be
00000300: eaf9 2e3e 6020 f83d ba23 3abe c623 6fbe
00000310: b006 2d3e d02c 8fbe e0d2 443d 40f2 5bbd
00000320: a46f 913a 1c25 2cbe 0823 11be 4b15 4f3e
00000330: a656 2abe 7518 a5be 190c 03be be5f 493e
00000340: 0830 133e 206b ae3c c3a1 77be 302a dd3c
00000350: 446d 243e 9261 75be b0eb ce3d 2c56 4cba
00000360: 543e 7e3e a412 29bd fa80 bbbd a895 51be
00000370: 3882 613d f844 673d 7d7a 1abe 7d2d 13be
00000380: c775 89be 5e8c 433e 6f62 163e 94d5 b6bd
00000390: c8d5 3cbe 88f0 af3d e7f4 88be 4949 f4bc
000003a0: 3835 733e 807a 13bb c0c3 23bd a2cf 91bd
000003b0: aca6 5fbd 30c8 0d3e 6c6b 853e acb4 8cbe
000003c0: 849d 213e 31e7 aa3a fc10 15be b840 64be
000003d0: 750f 193e 5c31 6a3e 2483 813d a883 b2bd
000003e0: ce25 93bd b8cb abbc d2a9 42be 2756 603e
000003f0: aa3c 68be 006b 713c d6f3 39be c0d2 e6bd

conv2.lin.weight f4 [1, 64]
0.15334937 0.19548318 0.21875691 -0.25865144 -0.16946647 -0.098568685 0.028734453 0.06054571
0.20826174 -0.028590547 0.20307352 0.08155596 -0.06258962 -0.07886973 -0.06629974 0.0030774013
0.24955691 0.038636114 0.106223986 0.0018804354 0.24204798 0.22539654 0.07506271 -0.26926753
0.28188944 0.07955724 0.24235225 0.28638875 0.030855082 0.023790529 0.25667483 -0.07739137
0.2925658 0.15955332 -0.15243673 -0.13922796 -0.17680044 0.18660334 0.16113144 0.25618243
0.12630603 -0.12582225 0.24021077 0.04295107 0.25787577 -0.15239498 -0.042642448 0.29836243
-0.104750164 -0.17596295 0.11203548 -0.044311497 0.2836816 0.06352583 0.21830083 -0.21987487
0.23127766 -0.20761034 -0.11487219 -0.14642051 -0.075901434 0.03177512 0.25510743 0.034240615
00000000: 9e07 1d3e be2c 483e d001 603e f66d 84be
00000010: 9e88 2dbe 61de c9bd 8464 eb3c c7fe 773d
00000020: 9142 553e b936 eabc 81f2 4f3e d006 a73d
00000030: fd2e 80bd 7486 a1bd 28c8 87bd 3aae 493b
00000040: d98b 7f3e e740 1e3d f68b d93d f178 f63a
00000050: 6ddb 773e 5ace 663e 7aba 993d 6fdd 89be
00000060: d053 903e e8ee a23d 302b 783e 8ca1 923e
00000070: ccc3 fc3c 5be4 c23c e26a 833e 5e7f 9ebd
00000080: 2fcb 953e f261 233e 6018 1cbe c691 0ebe
00000090: 2d0b 35be f214 3f3e a4ff 243e 582a 833e
000000a0: 5e56 013e 8cd7 00be d0f9 753e 76ed 2f3d
000000b0: 4b08 843e 6e0d 1cbe d9a9 2ebd f6c2 983e
000000c0: 4187 d6bd a22f 34be dc72 e53d f97f 35bd
000000d0: b73e 913e d519 823d 418a 5f3e e126 61be
000000e0: 0dd4 6c3e ce97 54be 1c42 ebbd 42ef 15be
000000f0: 3672 9bbd a126 023d 719d 823e e33f 0c3d
